SF__MO_000000000000_000/model.pt (torch, 14062 bytes, 6 tensors)

weight f8 [10, 51]
000000 73 e0 b1 9c 45 da d8 3f f8 9b 94 8b 87 59 d9 3f
       0.3883222608778915 0.3960894454089039
000010 f6 5f 95 99 f5 cc d8 3f b5 41 3e 72 b6 17 c4 3f
       0.38750972746265633 0.15697365358620421
000020 ea a1 e8 c5 a6 63 d8 3f b8 70 66 10 39 1d cc 3f
       0.3810822422697401 0.21964181233204783
000030 00 68 a9 e4 4e 82 d8 3f e3 8c 23 51 68 21 ca 3f
       0.3829533799195133 0.20414451562746824
000040 b6 7d 81 1c 6b 58 bc 3f 5d bc 92 fd b2 ce c1 3f
       0.11072415777152042 0.13912045842650658
000050 21 78 c5 c4 aa 33 d0 3f 21 1c 26 40 64 c6 d1 3f
       0.25315350738481085 0.27773386253869786
000060 4c 2e 89 ac 69 06 bf 3f 43 16 b4 97 36 67 d1 3f
       0.12119160139371238 0.2719246369818828
000070 c6 65 d9 af 44 e4 c9 3f 68 c0 bf 42 5b 1e c8 3f
       0.20227869593035858 0.1884264064715382
000080 e5 15 34 47 40 1b aa 3f 06 e7 2f 4f 9c c7 b4 3f
       0.05098915929015017 0.08117081578521032
000090 38 12 10 d3 8a f2 c1 3f 56 7e a1 54 7b bf cf 3f
       0.1402143030719729 0.24803105957379284
0000a0 5f 01 90 2e 0d 36 aa 3f ae 9d 59 aa 37 39 cd 3f
       0.0511936301554694 0.22830863778947957
0000b0 42 2c d3 e3 26 a5 b3 3f d7 2a 89 e6 4c 49 c7 3f
       0.07673876821643069 0.18192445046073288
0000c0 57 17 66 dc c9 1d d1 3f 46 d6 5d 1e ac 04 cb 3f
       0.26744314692802135 0.21108008845082987
0000d0 f8 b7 d9 9e c7 33 a1 bf 4d 42 a8 3d d4 61 a6 3f
       -0.03359817327587672 0.0437151265397274
0000e0 49 c9 52 d8 23 66 bb 3f e7 44 55 33 f2 6c c1 3f
       0.10702728301365484 0.13613727098940062
0000f0 4b 4f 88 f6 00 4e cc 3f 44 f8 1b d2 ab cf ac 3f
       0.22113048589437265 0.056271905325033816
000100 9b 3d 10 01 b4 80 ca 3f f8 66 39 1c c2 36 cc 3f
       0.207052708167322 0.22042108896385293
000110 ca 1d 9a 64 82 8a b2 3f 71 cc ba 77 e4 b3 c5 3f
       0.07242598491767818 0.16955238195587044
000120 df 9a 93 a4 76 10 c9 3f 37 2a db 0f 21 dd cf 3f
       0.19581492458310998 0.24893582605575812
000130 15 54 25 d5 a8 f1 cc 3f ca 03 8e 0c 09 70 ce 3f
       0.22612486274252377 0.23779404747986482
000140 95 b9 0f 2a d5 0b b2 3f 3d 55 56 07 17 39 cf 3f
       0.07049305226221343 0.24392974718345242
000150 21 70 5d 2f 18 d5 b8 bf d6 96 5d d4 5c f5 d1 3f
       -0.09700156360980873 0.2806007455713887
000160 9d f3 21 be b0 9f c2 3f 7d 68 0a ee 32 61 c1 3f
       0.14549836429423815 0.13577877638892125
000170 45 0f 7c 58 ae 54 c4 3f 7c 0e f3 ba 58 d7 c8 3f
       0.1588342601827383 0.19407185676947225
000180 aa f9 69 7b 78 3c c5 3f 1f bb 48 ed 8c a7 c9 3f
       0.1659079172713523 0.200425735341434
000190 b6 ba ad 3f a7 bd c3 3f ab e0 8f 49 00 66 b9 bf
       0.1542252598696529 -0.09921266361186791
0001a0 32 20 9b 5d 2a 65 ab bf f1 f6 4c a2 73 3f c1 bf
       -0.05350620644236449 -0.1347488920672997
0001b0 a8 8c c0 ae 07 81 b9 bf bb 0b f9 cd ee 3b c3 bf
       -0.09962509170923062 -0.1502665048338637
0001c0 0a c3 61 49 d0 8e c2 bf f1 70 da e3 e5 4b 60 3f
       -0.14498332579707834 0.0019893159904552584
0001d0 0b 8c 8b 36 5c 3f 73 3f 02 a1 3c d1 b4 c9 ab bf
       0.004699096877376806 -0.054273272077184145
0001e0 ce 00 37 f9 3a 57 c5 bf 55 7b 07 8c 8d 57 bb bf
       -0.16672455948537962 -0.10680470150644557
0001f0 86 71 ed ab 2a 5a 80 bf de 7e 26 a3 96 71 bb bf
       -0.007984479305087399 -0.10720197184718525
000200 dd 63 6e 83 e0 62 bc bf 6a 36 f2 b2 25 bd c7 bf
       -0.11088374336976821 -0.1854598163376296
000210 bb 62 78 62 e4 e9 a6 bf f9 b7 1e 45 c6 ed c9 bf
       -0.044753205318732246 -0.20256880164146177
000220 7b dd 36 ef d1 b5 ae bf 86 93 61 52 48 27 c0 bf
       -0.05998092694374698 -0.1261988069774384
000230 dd 75 9e 69 83 fe c4 bf 7b d1 9f 48 7e ae b6 bf
       -0.16401713044335411 -0.08860005639127692
000240 d9 c7 46 e0 c8 dc b4 bf 38 89 02 87 58 75 97 3f
       -0.08149390674114389 0.02290857624087403
000250 75 72 18 2c 50 fa a9 3f e6 22 63 5a 74 b9 a3 bf
       0.05073786295199493 -0.03852428058013917
000260 81 2c b0 7d b6 89 bf bf 34 b2 6f 26 ae 02 b4 3f
       -0.12319508141097125 0.0781658977354674
000270 19 6c 8f b4 bf d6 71 3f 68 d9 5e ea 31 73 c5 bf
       0.004355191086655296 -0.167577971876834
000280 3a 1a ef a8 26 c4 c6 bf 1d 24 11 28 07 54 ca bf
       -0.17786105393152402 -0.20568932968515777
000290 85 54 b1 93 4f 8a c5 bf 33 2f 11 16 2f c5 ac 3f
       -0.16828341208989542 0.0561918940007601
0002a0 57 14 4d fc d0 ef bf bf a9 fc ab 46 04 76 c4 bf
       -0.12475305709547634 -0.15985158396504076
0002b0 ab 19 44 b1 95 ad c4 bf 59 0c d1 6c 2c 96 92 bf
       -0.16154738574568958 -0.018150991574895723
0002c0 c5 ea f9 be 8e 3c ae 3f 09 1e fb 6c cf b9 ae 3f
       0.059055767834214325 0.0600113697560652
0002d0 66 42 7f 53 fc 2e 9a 3f 2b 34 02 18 9e e0 9b 3f
       0.025569861027010886 0.02722403546845357
0002e0 f5 8b b4 d9 11 16 c0 bf 06 da 43 25 f3 58 c0 bf
       -0.12567351465358426 -0.1277145320852499
0002f0 ea 71 57 63 46 22 87 3f 23 05 49 66 d7 fe c0 bf
       0.011295843035377968 -0.13277714247127745
000300 e3 d2 03 b1 d7 ad a0 bf ed 0f 5b 65 aa 55 b7 3f
       -0.03257631336047042 0.09115090345863992
000310 a7 d8 f8 cb f1 50 7f bf 31 b3 af 85 ee f0 aa bf
       -0.007645554083458495 -0.05261941320336517
000320 fe 64 e1 bd b1 bb bb bf 99 7f 03 ce cb e6 a6 bf
       -0.1083327377867995 -0.0447295845967794
000330 b2 e8 1e 3c 0f ab d2 3f fc 81 35 e5 ef fe d4 3f
       0.29169064398923716 0.3280601251954349
000340 9d fa f0 13 5b db c2 3f d6 77 cd 0e 64 c5 d0 3f
       0.14731920694062675 0.2620477814251648
000350 dd c7 99 fc 39 9b d0 3f 1e f5 63 b5 84 b7 d2 3f
       0.2594742743304986 0.29245107377922064
000360 8a 0c 30 e2 24 2a d9 3f 11 b4 4b ec 9d fe d7 3f
       0.3931972702850507 0.37491558147195386
000370 26 33 62 62 22 92 a3 3f f9 cd f4 62 b1 14 c3 3f
       0.03822429133388132 0.14906899768685358
000380 8d 7a 10 2f f0 48 cc 3f b9 25 ed 6a 98 3f ce 3f
       0.2209758977705473 0.2363157770253517
000390 91 37 ea b1 78 df cd 3f 4b fa 0d e0 17 dd b7 3f
       0.2333823078847073 0.09321736545641916
0003a0 ad 31 2e f3 32 19 c3 3f 11 39 c4 25 9a 99 a1 3f
       0.14920651315732184 0.034375016317527714
0003b0 53 4d c5 fa 90 5a c2 3f 14 e4 0c c7 10 00 9a 3f
       0.14338886494315747 0.02539087500483468
0003c0 49 81 18 98 5b 6c c2 3f 00 cf 94 23 59 7b b2 3f
       0.14393181730793916 0.07219464415248567
0003d0 b7 11 e6 ab 07 00 a2 3f ae 96 53 ac 26 a6 ba 3f
       0.035156478627900105 0.10409776408377056
0003e0 de a2 94 b3 e4 41 d0 3f 5a 29 d4 31 0d d2 b9 3f
       0.25402181183976136 0.1008613821651684
0003f0 00 06 c3 4c 6b 9c ce 3f 0a 6f d7 54 9b f8 c2 3f
       0.23914853332648534 0.1482118763223002
000400 97 ec 34 87 80 81 c3 3f c9 b8 74 93 a5 d6 d1 3f
       0.1523895893277298 0.2787259998321017
000410 3e 9b 8e 3b d1 bf a1 3f 85 d8 03 a1 d5 e2 d2 3f
       0.034666574974201655 0.295094878426774
000420 ee 81 8a 52 0b 14 a7 3f 01 ea 02 64 8b 91 c7 3f
       0.04507480032521359 0.18412916549080197
000430 96 ae 3b 84 b2 c6 b9 3f c3 49 58 4f 00 7f cc 3f
       0.10068813064907042 0.22262576936971187
000440 98 bc be ae 57 d4 98 3f de da a6 42 9b b3 cd 3f
       0.024247522392837867 0.23204365496140772
000450 24 01 5b 7b 5a c4 c8 3f 33 b0 94 64 14 4f d2 3f
       0.19349223159043405 0.2860766393885143
000460 ab 57 95 fe 0a 3b cf 3f de 74 30 7e ea 4a c2 3f
       0.24398934775188982 0.14291125451646897
000470 9a e4 31 22 af 6a c7 3f 4d 72 51 72 40 6b b8 3f
       0.18294324083015995 0.09538653174372165
000480 cd 4b 28 62 43 a1 a1 bf a0 d7 89 90 41 6f c0 3f
       -0.03443346570215731 0.12839526708165483
000490 f7 5f 69 9e 84 c5 c2 3f a2 64 b9 2f 5f 90 92 3f
       0.14665277228300486 0.01812885979447699
0004a0 a5 e9 51 8d f1 cf a6 3f b9 14 9d 10 1a 92 b5 3f
       0.044555233479474134 0.08426058679204375
0004b0 b7 43 f2 96 c3 53 90 bf e0 44 9c 9f ab bb b0 3f
       -0.015944534385713385 0.0653636231111423
0004c0 59 06 ba 61 e1 be 98 bf 47 44 8b f9 58 6d c1 bf
       -0.024165650930177616 -0.13614952263609068
0004d0 40 c2 6b 78 10 76 a8 3f c3 9b 95 fe 78 44 b3 3f
       0.047775759410687346 0.07526355948867462
0004e0 0d 86 3e 42 1d dc a2 bf 08 e9 28 16 88 5b bf bf
       -0.03683558877606794 -0.1224904111958588
0004f0 76 aa 6e 4c 2e ee b5 bf 34 b0 c1 ba fd fa c3 bf
       -0.0856656014063136 -0.15609714144682274
000500 18 66 e3 8d c7 ba c5 bf 69 f9 bf ea a8 be 61 bf
       -0.16976255825174813 -0.002166109004973983
000510 29 50 2a b0 5e 90 c4 3f 74 af 73 ae 6a 20 c6 3f
       0.16065581895657147 0.17286427992018683
000520 53 29 f7 bf db b9 ab bf 03 47 e5 e3 8d 7e b4 bf
       -0.054152362044606626 -0.08005606473787101
000530 89 13 59 f6 dd 1d b7 3f 5a 75 58 d9 95 71 a6 bf
       0.09029948486666063 -0.04383533743041808
000540 82 84 f2 8a b3 26 a1 3f ba 32 79 df 9b aa 83 3f
       0.03349839278349355 0.009602754361503475
000550 82 b3 3b fe 0b 57 b6 bf 66 31 5d 7b 5d 84 b7 3f
       -0.08726572949281144 0.09186348211114179
000560 29 4b 0d 0c 76 67 c1 3f 3f 53 85 4b df 55 a4 3f
       0.13596988285515835 0.039717653244827116
000570 59 fe b1 58 f7 6a b7 bf fe 8c cd fe a4 34 bc 3f
       -0.09147592463886535 0.11017829151892397
000580 4d 17 89 f7 6d 4c 90 bf 80 66 50 4b 0f 9d c0 3f
       -0.015916555627220764 0.12979308297581227
000590 e0 86 38 73 2b 0b ae 3f 25 34 32 8e 5b 83 a6 bf
       0.05867896825317387 -0.043970929248736725
0005a0 b9 47 b5 17 5e d4 ae bf 81 a4 93 83 17 c3 a1 3f
       -0.06021398581891852 0.034691557704555905
0005b0 8d d0 20 53 34 c5 c4 3f a4 af 3d 84 9f 6e a0 bf
       0.162268200483258 -0.032093987362571214
0005c0 c9 5a 2a 7c 4b c0 b8 3f 83 74 7a cc a4 4a 80 bf
       0.09668418675787928 -0.00795487164514897
0005d0 83 48 44 05 1f e2 c0 3f 27 12 c6 e0 7e bc ba 3f
       0.13190067059673902 0.10443871486320032
0005e0 93 27 f6 8b 63 31 c0 3f 92 72 dd db 03 bc a2 bf
       0.12650722822246205 -0.036590691174500325
0005f0 a1 6a c9 20 77 12 c6 3f 42 5c 02 2f a3 ec 9f bf
       0.17243851757924225 -0.03117613768025885
000600 24 05 6f 74 5a 9c a6 3f f6 d6 c9 c2 18 f1 c3 3f
       0.04416163131055331 0.15579518805650822
000610 c1 03 f6 1c 12 dd b7 bf 82 6d b2 03 81 2b 7c bf
       -0.09321702200942551 -0.00687742611185216
000620 ba 16 e9 10 25 c1 c0 3f 76 b7 b9 dd 84 d4 74 3f
       0.130894311196405 0.0050854864199275564
000630 78 80 c4 55 69 f3 be 3f 48 f1 c1 5d 58 04 c1 bf
       0.120901664199211 -0.13294510438925955
000640 44 32 2b 81 61 5e 91 3f 14 f1 c2 50 2e 4d 84 bf
       0.016961596974214524 -0.009912835921902764
000650 14 2e d9 11 9b 8e bf bf 4b 89 d5 5f 85 31 b2 bf
       -0.12326974092246018 -0.07106813039493891
000660 ec 99 2a af 52 94 c5 3f c8 be 8c 71 e1 16 da 3f
       0.16858895829245968 0.407646523369277
000670 ec 90 5e f2 a7 6b c7 3f 7f d9 0a 9c ac 4a d2 3f
       0.18297290167277624 0.2858077548838977
000680 9f 42 b6 d4 43 73 d3 3f 99 85 96 6b b2 55 da 3f
       0.3039102151169945 0.4114805269874409
000690 1b 6b ef bb 77 bb cb 3f cf 50 2d e2 b0 45 d9 3f
       0.21665856052899177 0.39487859809493114
0006a0 4c 71 05 75 c9 16 be 3f 0a 61 8d bc 41 e9 c5 3f
       0.11753520113911015 0.17118093210843482
0006b0 f3 36 60 fb b5 6d b3 3f 9f 4f ec c2 8c 84 97 3f
       0.07589280497651511 0.02296657504764676
0006c0 70 0f 03 11 a8 83 b4 3f 18 53 9c 6a e7 87 ad 3f
       0.08013391890841404 0.05767749000930261
0006d0 01 00 ec fe be c5 c9 3f 38 8e 2b 61 da 6d a5 3f
       0.20134723136288815 0.04185373722227975
0006e0 3d af 51 15 bd 3e c7 3f 82 1c aa f3 0b c6 c4 3f
       0.18160213032694542 0.16229390523605863
0006f0 62 ce 92 bc 58 a7 a6 3f a1 92 b7 5c 06 2b c2 3f
       0.04424550344392909 0.14193801428986766
000700 85 43 dd d4 78 5b b6 3f c0 60 0f d6 c3 b2 ca 3f
       0.08733325192339521 0.20858047439720018
000710 00 71 96 fc a0 2f c9 3f 57 40 b7 e2 c3 b5 b8 3f
       0.19676601727849885 0.09652351651243528
000720 75 d4 aa 42 dc 27 c2 3f 12 f6 cf 69 0e 9f ca 3f
       0.14184144263495893 0.20797901312464312
000730 a6 41 15 cb 00 a6 98 3f 58 7d 6e 1e 25 81 c9 3f
       0.02407075156708207 0.19925369249265645
000740 f4 35 10 15 fa f2 d1 3f 5e 79 85 86 89 08 ae 3f
       0.28045513207402384 0.05865888373476723
000750 f8 bd ef 26 fc 5e c2 3f 92 25 1e 95 3c 8b d0 3f
       0.143523711215934 0.258498330710233
000760 83 a3 dd fc 25 cc d1 3f 9b ef 6d 97 29 d9 b0 3f
       0.2780852288620325 0.06581363627441165
000770 19 04 b4 70 af eb a4 bf 8c 08 29 c7 fe 20 b5 3f
       -0.04086063624163944 0.08253471720039068
000780 89 a5 7e 6a 56 3a d0 3f f8 d9 9f e5 f1 c1 d2 3f
       0.25356064224123337 0.2930874578882192
000790 70 a6 f6 51 17 da 9b 3f ec f6 76 c0 04 32 c2 3f
       0.027199139001515993 0.1421514453667706
0007a0 18 7a e7 fd 4b 37 c8 3f 14 5e 94 8c 7a 1e ac 3f
       0.18918752572695108 0.05492003408488358
0007b0 46 32 84 53 43 4c b2 3f 91 ea 34 d1 66 77 c3 3f
       0.07147618092512528 0.15208134856387237
0007c0 67 b4 0c ef 5c 65 c5 3f 45 e4 f8 5b 09 e0 c0 3f
       0.16715585396142105 0.13183705321151443
0007d0 90 0f 47 43 b1 4d cb 3f 8b 6a 1d 32 8c 31 c0 3f
       0.21330848488844056 0.1265120739652342
0007e0 2e 88 ef 0d 60 53 cc 3f dc 72 28 99 78 20 ce 3f
       0.2212944095654747 0.23536593893449875
0007f0 a7 2d 89 03 14 5b bd 3f f6 e9 3b 59 2e 1f af bf
       0.1146709927208379 -0.06078476752550792

bias f8 [10]
000000 40 4a 44 2b 01 f0 d8 3f 8b d5 05 08 db 7f 5e 3f
       0.3896487162138875 0.001861537835876478
000010 f0 39 f8 34 44 bf d9 3f 4d 12 7e 64 8a e8 73 bf
       0.40229897663894487 -0.004860439868825295
000020 66 88 4f 8e 14 a3 d8 3f e0 7c 7c 49 13 23 b5 bf
       0.3849536313774763 -0.08256645721529621
000030 3e c0 69 24 b6 ab ac 3f 3d 68 02 1d c8 82 be bf
       0.05599755472655986 -0.11918307026135806
000040 e7 dc 4e 5b 5a 1e a8 3f 62 1b 98 5d b8 ef d1 3f
       0.047106574674609374 0.28025635852866604

weight f8 [10, 10]
000000 00 c6 b2 c2 6b 3d cd 3f 7e 48 3c 92 72 b4 bb bf
       0.22843691832308366 -0.1082221610088556
000010 a0 0e b8 96 7b d0 ca 3f 8e ed 24 d5 8f 4d c8 3f
       0.2094873891766058 0.1898669996970565
000020 fe 63 cf c6 f9 47 b7 3f 05 69 49 5f 32 f5 d0 3f
       0.09094201186907466 0.26496562295291454
000030 50 8a 76 89 9b 50 c4 bf 0c 41 f4 44 11 95 b1 3f
       -0.15870994770110025 0.06868083890390525
000040 94 1f f8 be da 3c d0 3f b0 59 4d d5 be 2c da 3f
       0.2537142624792008 0.4089810450581366
000050 c5 18 fe 0a 12 74 e2 3f 66 86 f1 4d a4 8c a5 bf
       0.5766687597940964 -0.042088636889059214
000060 c2 87 1e 7e f5 fb b7 3f 2d 9e 50 c6 fd 03 d3 3f
       0.09368833855708572 0.2971186100644186
000070 2e 03 f1 ff 4d 80 e2 3f db f5 f4 72 d6 93 b1 bf
       0.5781621931892909 -0.06866207415165297
000080 c2 1a 32 a2 65 17 d4 3f 4d c9 cf 50 92 da c2 3f
       0.31392803992677554 0.14729527421838853
000090 88 7f d7 00 54 2b a1 bf e2 fc 63 b8 81 1f dd 3f
       -0.03353369245792154 0.4550480175675614
0000a0 56 13 07 05 00 c8 e2 bf f8 22 7d 8d 7e 11 90 bf
       -0.586914071864707 -0.015691735635559007
0000b0 ee 3b 3f 0e 1f 10 e1 bf ae 95 05 b9 b3 f6 d6 bf
       -0.533217933489025 -0.35880749767815245
0000c0 a4 ff ec 3b 84 1d dc bf f3 c8 53 ce 33 e6 bb 3f
       -0.4393015465939192 0.10898135936057311
0000d0 98 93 38 78 db a8 7a bf ea 76 18 80 fe 4d d2 bf
       -0.006508691123177444 -0.2860103846486327
0000e0 34 e2 ba 1b 70 cf d0 3f ba 6d 0d f9 13 3f 9f bf
       0.2626610060501975 -0.03051406104655794
0000f0 12 23 38 bd a5 15 df bf 64 e4 69 1f ff 46 c1 3f
       -0.48569625357099355 0.13497914346570206
000100 6c f4 cd 52 68 3e dc bf d8 13 fe 4d 49 37 ac 3f
       -0.4413090523374368 0.05510930134827391
000110 17 a1 3d e8 70 09 de bf e5 6b a8 bb 24 0d b6 bf
       -0.4693262355781526 -0.0861380537175332
000120 9f 56 04 aa c8 7e c8 bf 93 4a 70 97 a3 99 cd bf
       -0.19136913587197044 -0.23125119108643286
000130 41 e0 7a 6b ed 4a d0 3f b1 3f 3c 50 a3 65 d5 bf
       0.2545732068642828 -0.33432848773463336
000140 37 2f 3f e5 86 d3 d8 bf 0a 97 6c 9f f6 eb c7 bf
       -0.3879105795610828 -0.18688853058227323
000150 4f 37 42 bb 16 c8 c6 bf 67 eb 9d a5 21 00 d3 bf
       -0.17798122542847714 -0.2968830220558431
000160 57 7d bb 41 0d ad dd bf 65 c2 28 b8 78 00 b3 bf
       -0.4636872426908289 -0.0742259454352819
000170 55 91 6a 90 66 4a c4 3f c1 34 24 45 61 8f d2 bf
       0.15852052737785507 -0.2900012183388974
000180 b1 39 47 9e d9 e7 c0 3f 8c 7c b9 84 37 6c ab bf
       0.13207550266674908 -0.053560004188278304
000190 0a f2 46 32 e4 a7 d4 3f d6 69 0c 18 69 5c cc bf
       0.322747277354012 -0.2215701453613536
0001a0 38 b8 52 e7 e2 b6 d6 3f ab 79 54 95 18 73 b7 bf
       0.35491249647282386 -0.09159997602225782
0001b0 d4 32 5a d5 2e 6b db 3f 75 72 12 93 91 f3 cb 3f
       0.42841692767323747 0.21837062531712417
0001c0 da 38 57 ad 0b 21 bb bf 9b 29 a1 19 77 84 bf 3f
       -0.1059729860491844 0.12311500907632082
0001d0 4a a3 ab 7e c9 1a 7a 3f 18 4a 59 44 cf 22 e1 3f
       0.006373202408874354 0.5354992232262843
0001e0 bd e1 6e 83 a1 4b d7 3f c1 37 84 35 21 be c3 3f
       0.36399114451662823 0.15423979867085616
0001f0 32 b7 43 50 3d e1 db 3f fb bf 8c ac 1f d4 c3 3f
       0.4356225284417291 0.1549110024002401
000200 e7 55 57 aa fd 33 dd 3f f1 80 c6 64 05 ad c8 bf
       0.4562982715118253 -0.19278018398927757
000210 a0 81 9e 2d eb 19 c7 bf 35 6a a9 c7 c5 33 bd bf
       -0.18047847487924873 -0.11407123684458827
000220 6c b7 fa b9 48 e7 c0 3f f1 1d 23 d9 83 a1 e2 3f
       0.13205823021911145 0.5822161904297315
000230 e2 1a 05 ff 44 c9 8f 3f 79 1b 07 e2 f7 45 c6 bf
       0.015520609886733042 -0.1740102628375231
000240 6d 17 47 fd 62 de b2 3f 72 9b ce 4a b6 dc c2 bf
       0.07370585139787318 -0.14736059811294983
000250 a3 e6 c3 52 aa c5 e0 3f da 62 a4 eb 37 79 cf 3f
       0.5241290680416636 0.24588679319346946
000260 af 14 35 cc ad 01 d3 3f e5 72 19 40 95 0d c8 bf
       0.2969774717533466 -0.18791452054838156
000270 eb 2d 4d 75 72 0d c8 3f c4 25 17 e9 0f 75 e1 3f
       0.18791037299739285 0.5455398132846132
000280 99 5d 12 66 a3 e5 b9 3f 20 d9 04 c6 72 71 92 3f
       0.10116025201783997 0.018010896049610925
000290 79 fb cb 16 6b 66 d7 3f ba 6d cb 1a e6 56 c3 bf
       0.36562611795664385 -0.15108944233257465
0002a0 3c 7a 9a cc ca 50 dc 3f a2 43 1c 2a cc 9e d2 3f
       0.44243116360476953 0.2909422312960094
0002b0 4d a4 3e 98 7b 01 d2 3f 95 72 95 04 24 63 d2 3f
       0.2813405024304004 0.2873010678065751
0002c0 1a 57 be bf 19 9c d2 bf eb c1 17 11 9b 9a db 3f
       -0.29077762341454305 0.43131138486117376
0002d0 c9 8e 30 00 46 6d d2 bf 6b 5a 13 27 64 4e d3 bf
       -0.2879195215084392 -0.3016596204373971
0002e0 ce 80 14 f7 50 5e a2 bf 0b d6 6b 25 3c 95 b0 bf
       -0.03587582603563676 -0.0647771445618092
0002f0 57 f8 21 49 c5 4b de bf ab 07 40 2e 1e c6 d1 bf
       -0.4733746732889634 -0.2777171565686511
000300 b5 67 7e 01 f6 55 bf bf fc 6c 62 59 3e ca b9 bf
       -0.12240541016072266 -0.10074224169004603
000310 94 d4 da 5b 6d 3d b2 bf c6 ed 1d 49 10 4e e3 bf
       -0.07124980442570666 -0.6032792499603878

bias f8 [10]
000000 22 b6 dd 0a 4e d9 d4 3f e7 74 14 4a 4a b3 dc 3f
       0.32576323567522725 0.4484430049358949
000010 92 54 ee fb 30 07 d2 bf 81 0f ef b9 77 ee da bf
       -0.2816889248145539 -0.42080491216278665
000020 58 c1 d6 1a 77 5a d9 bf 11 d0 91 f2 df 56 db 3f
       -0.39614656086907507 0.42717741669116643
000030 1a 7e f4 12 6f ce a2 3f fb 2c 9a 09 32 76 e1 3f
       0.03673121553788068 0.5456781566184924
000040 c3 dc 2c 18 c1 4f d9 3f be b8 8b c7 8d 8c d0 bf
       0.3954928146444667 -0.25857872473615007

weight f8 [1, 10]
000000 8e 93 20 a7 71 26 e1 bf 7f 42 88 c6 fc 5e d2 bf
       -0.5359428657726413 -0.28704757106701345
000010 81 c4 11 a0 6b 65 e0 3f 60 3c 9e 14 97 53 dd 3f
       0.5123804212909279 0.45822693837630446
000020 91 8f ee fd d0 e9 d1 3f 2e c6 e0 6e 00 6d e0 bf
       0.27989601896319366 -0.5133058705889135
000030 5e 20 fb ab 4b 12 d7 bf c5 db 65 26 6f b6 d8 bf
       -0.3604916743756855 -0.3861348986605971
000040 dd 58 a3 cd 82 73 e1 bf a6 62 52 21 e2 ae d0 3f
       -0.5453504577988287 0.26067403081973806

bias f8 [1]
000000 c0 7c 66 42 ed 63 cb bf
       -0.21398702375606682
